<net name="Graph"><layers><layer id="0" name="/nncf_model_input_0" type="Nncf_Model_Input"><data metatype="input_noop" node_id="0" /><output><port id="0"><dim>1</dim><dim>128</dim></port></output></layer><layer id="1" name="/nncf_model_input_1" type="Nncf_Model_Input"><data metatype="input_noop" node_id="1" /><output><port id="0"><dim>1</dim><dim>128</dim></port></output></layer><layer id="2" name="/nncf_model_input_2" type="Nncf_Model_Input"><data metatype="input_noop" node_id="2" /><output><port id="0"><dim>1</dim><dim>128</dim></port></output></layer><layer id="3" name="/nncf_model_input_3" type="Nncf_Model_Input"><data metatype="input_noop" node_id="3" /><output><port id="0"><dim>1</dim><dim>128</dim></port></output></layer><layer id="4" name="BertForSequenceClassification/BertModel[bert]/__getitem___0" type="__Getitem__"><data metatype="GatherOp" node_id="4" key="(slice(None, None, None), None, None, slice(None, None, None))" /><input><port id="0"><dim>1</dim><dim>128</dim></port></input></layer><layer id="5" name="BertForSequenceClassification/BertModel[bert]/BertEmbeddings[embeddings]/NNCFEmbedding[word_embeddings]/embedding_0" type="Embedding"><data metatype="EmbeddingOp" node_id="5" weight_requires_grad="True" dtype="Dtype.FLOAT" weight_shape="torch.Size([30522, 128])" filter_dimension_idx="0" /><input><port id="0"><dim>1</dim><dim>128</dim></port></input><output><port id="0"><dim>1</dim><dim>128</dim><dim>128</dim></port></output></layer><layer id="6" name="BertForSequenceClassification/BertModel[bert]/BertEmbeddings[embeddings]/NNCFEmbedding[token_type_embeddings]/embedding_0" type="Embedding"><data metatype="EmbeddingOp" node_id="6" weight_requires_grad="True" dtype="Dtype.FLOAT" weight_shape="torch.Size([2, 128])" filter_dimension_idx="0" /><input><port id="0"><dim>1</dim><dim>128</dim></port></input><output><port id="0"><dim>1</dim><dim>128</dim><dim>128</dim></port></output></layer><layer id="7" name="BertForSequenceClassification/BertModel[bert]/BertEmbeddings[embeddings]/__add___0" type="__Add__"><data metatype="AddOp" node_id="7" /><input><port id="0"><dim>1</dim><dim>128</dim><dim>128</dim></port><port id="1"><dim>1</dim><dim>128</dim><dim>128</dim></port></input><output><port id="0"><dim>1</dim><dim>128</dim><dim>128</dim></port></output></layer><layer id="8" name="BertForSequenceClassification/BertModel[bert]/BertEmbeddings[embeddings]/NNCFEmbedding[position_embeddings]/embedding_0" type="Embedding"><data metatype="EmbeddingOp" node_id="8" weight_requires_grad="True" dtype="Dtype.FLOAT" weight_shape="torch.Size([512, 128])" filter_dimension_idx="0" /><input><port id="0"><dim>1</dim><dim>128</dim></port></input><output><port id="0"><dim>1</dim><dim>128</dim><dim>128</dim></port></output></layer><layer id="9" name="BertForSequenceClassification/BertModel[bert]/BertEmbeddings[embeddings]/__iadd___0" type="__Iadd__"><data metatype="AddOp" node_id="9" /><input><port id="0"><dim>1</dim><dim>128</dim><dim>128</dim></port><port id="1"><dim>1</dim><dim>128</dim><dim>128</dim></port></input><output><port id="0"><dim>1</dim><dim>128</dim><dim>128</dim></port></output></layer><layer id="10" name="BertForSequenceClassification/BertModel[bert]/BertEmbeddings[embeddings]/NNCFLayerNorm[LayerNorm]/layer_norm_0" type="Layer_Norm"><data metatype="LayerNormOp" node_id="10" weight_requires_grad="True" dtype="Dtype.FLOAT" weight_shape="torch.Size([128])" filter_dimension_idx="0" /><input><port id="0"><dim>1</dim><dim>128</dim><dim>128</dim></port></input><output><port id="0"><dim>1</dim><dim>128</dim><dim>128</dim></port></output></layer><layer id="11" name="BertForSequenceClassification/BertModel[bert]/BertEmbeddings[embeddings]/Dropout[dropout]/dropout_0" type="Dropout"><data metatype="DropoutOp" node_id="11" /><input><port id="0"><dim>1</dim><dim>128</dim><dim>128</dim></port></input><output><port id="0"><dim>1</dim><dim>128</dim><dim>128</dim></port><port id="0"><dim>1</dim><dim>128</dim><dim>128</dim></port><port id="0"><dim>1</dim><dim>128</dim><dim>128</dim></port><port id="0"><dim>1</dim><dim>128</dim><dim>128</dim></port></output></layer><layer id="12" name="BertForSequenceClassification/BertModel[bert]/BertEncoder[encoder]/ModuleList[layer]/BertLayer[0]/BertAttention[attention]/BertSelfAttention[self]/NNCFLinear[query]/linear_0" type="Linear"><data metatype="LinearOp" node_id="12" weight_requires_grad="True" dtype="Dtype.FLOAT" in_features="128" out_features="128" bias="True" output_mask="{&#10;    &quot;2&quot;: [&#10;        [&#10;            &quot;S:1__O:0__ID:12&quot;&#10;        ]&#10;    ]&#10;}" /><input><port id="0"><dim>1</dim><dim>128</dim><dim>128</dim></port></input><output><port id="0"><dim>1</dim><dim>128</dim><dim>128</dim></port></output></layer><layer id="13" name="BertForSequenceClassification/BertModel[bert]/BertEncoder[encoder]/ModuleList[layer]/BertLayer[0]/BertAttention[attention]/BertSelfAttention[self]/NNCFLinear[key]/linear_0" type="Linear"><data metatype="LinearOp" node_id="13" weight_requires_grad="True" dtype="Dtype.FLOAT" in_features="128" out_features="128" bias="True" output_mask="{&#10;    &quot;2&quot;: [&#10;        [&#10;            &quot;S:1__O:0__ID:13&quot;&#10;        ]&#10;    ]&#10;}" /><input><port id="0"><dim>1</dim><dim>128</dim><dim>128</dim></port></input><output><port id="0"><dim>1</dim><dim>128</dim><dim>128</dim></port></output></layer><layer id="14" name="BertForSequenceClassification/BertModel[bert]/BertEncoder[encoder]/ModuleList[layer]/BertLayer[0]/BertAttention[attention]/BertSelfAttention[self]/view_0" type="View"><data metatype="ReshapeOp" node_id="14" input_shape="(1, 128, 128)" output_shape="(1, 128, 2, 64)" /><input><port id="0"><dim>1</dim><dim>128</dim><dim>128</dim></port></input><output><port id="0"><dim>1</dim><dim>128</dim><dim>2</dim><dim>64</dim></port></output></layer><layer id="15" name="BertForSequenceClassification/BertModel[bert]/BertEncoder[encoder]/ModuleList[layer]/BertLayer[0]/BertAttention[attention]/BertSelfAttention[self]/permute_0" type="Permute"><data metatype="TransposeOp" node_id="15" permutation="(0, 2, 1, 3)" /><input><port id="0"><dim>1</dim><dim>128</dim><dim>2</dim><dim>64</dim></port></input><output><port id="0"><dim>1</dim><dim>2</dim><dim>128</dim><dim>64</dim></port></output></layer><layer id="16" name="BertForSequenceClassification/BertModel[bert]/BertEncoder[encoder]/ModuleList[layer]/BertLayer[0]/BertAttention[attention]/BertSelfAttention[self]/NNCFLinear[value]/linear_0" type="Linear"><data metatype="LinearOp" node_id="16" weight_requires_grad="True" dtype="Dtype.FLOAT" in_features="128" out_features="128" bias="True" output_mask="{&#10;    &quot;2&quot;: [&#10;        [&#10;            &quot;S:1__O:0__ID:16&quot;&#10;        ]&#10;    ]&#10;}" /><input><port id="0"><dim>1</dim><dim>128</dim><dim>128</dim></port></input><output><port id="0"><dim>1</dim><dim>128</dim><dim>128</dim></port></output></layer><layer id="17" name="BertForSequenceClassification/BertModel[bert]/BertEncoder[encoder]/ModuleList[layer]/BertLayer[0]/BertAttention[attention]/BertSelfAttention[self]/view_1" type="View"><data metatype="ReshapeOp" node_id="17" input_shape="(1, 128, 128)" output_shape="(1, 128, 2, 64)" /><input><port id="0"><dim>1</dim><dim>128</dim><dim>128</dim></port></input><output><port id="0"><dim>1</dim><dim>128</dim><dim>2</dim><dim>64</dim></port></output></layer><layer id="18" name="BertForSequenceClassification/BertModel[bert]/BertEncoder[encoder]/ModuleList[layer]/BertLayer[0]/BertAttention[attention]/BertSelfAttention[self]/permute_1" type="Permute"><data metatype="TransposeOp" node_id="18" permutation="(0, 2, 1, 3)" /><input><port id="0"><dim>1</dim><dim>128</dim><dim>2</dim><dim>64</dim></port></input><output><port id="0"><dim>1</dim><dim>2</dim><dim>128</dim><dim>64</dim></port></output></layer><layer id="19" name="BertForSequenceClassification/BertModel[bert]/BertEncoder[encoder]/ModuleList[layer]/BertLayer[0]/BertAttention[attention]/BertSelfAttention[self]/view_2" type="View"><data metatype="ReshapeOp" node_id="19" input_shape="(1, 128, 128)" output_shape="(1, 128, 2, 64)" /><input><port id="0"><dim>1</dim><dim>128</dim><dim>128</dim></port></input><output><port id="0"><dim>1</dim><dim>128</dim><dim>2</dim><dim>64</dim></port></output></layer><layer id="20" name="BertForSequenceClassification/BertModel[bert]/BertEncoder[encoder]/ModuleList[layer]/BertLayer[0]/BertAttention[attention]/BertSelfAttention[self]/permute_2" type="Permute"><data metatype="TransposeOp" node_id="20" permutation="(0, 2, 1, 3)" /><input><port id="0"><dim>1</dim><dim>128</dim><dim>2</dim><dim>64</dim></port></input><output><port id="0"><dim>1</dim><dim>2</dim><dim>128</dim><dim>64</dim></port></output></layer><layer id="21" name="BertForSequenceClassification/BertModel[bert]/BertEncoder[encoder]/ModuleList[layer]/BertLayer[0]/BertAttention[attention]/BertSelfAttention[self]/transpose_0" type="Transpose"><data metatype="TransposeOp" node_id="21" dim0="-1" dim1="-2" /><input><port id="0"><dim>1</dim><dim>2</dim><dim>128</dim><dim>64</dim></port></input><output><port id="0"><dim>1</dim><dim>2</dim><dim>64</dim><dim>128</dim></port></output></layer><layer id="22" name="BertForSequenceClassification/BertModel[bert]/BertEncoder[encoder]/ModuleList[layer]/BertLayer[0]/BertAttention[attention]/BertSelfAttention[self]/matmul_0" type="Matmul"><data metatype="MatMulOp" node_id="22" /><input><port id="0"><dim>1</dim><dim>2</dim><dim>128</dim><dim>64</dim></port><port id="1"><dim>1</dim><dim>2</dim><dim>64</dim><dim>128</dim></port></input><output><port id="0"><dim>1</dim><dim>2</dim><dim>128</dim><dim>128</dim></port></output></layer><layer id="23" name="BertForSequenceClassification/BertModel[bert]/BertEncoder[encoder]/ModuleList[layer]/BertLayer[0]/BertAttention[attention]/BertSelfAttention[self]/__truediv___0" type="__Truediv__"><data metatype="DivOp" node_id="23" /><input><port id="0"><dim>1</dim><dim>2</dim><dim>128</dim><dim>128</dim></port></input><output><port id="0"><dim>1</dim><dim>2</dim><dim>128</dim><dim>128</dim></port></output></layer><layer id="24" name="BertForSequenceClassification/BertModel[bert]/BertEncoder[encoder]/ModuleList[layer]/BertLayer[0]/BertAttention[attention]/BertSelfAttention[self]/__add___0" type="__Add__"><data metatype="AddOp" node_id="24" /><input><port id="0"><dim>1</dim><dim>2</dim><dim>128</dim><dim>128</dim></port></input><output><port id="0"><dim>1</dim><dim>2</dim><dim>128</dim><dim>128</dim></port></output></layer><layer id="25" name="BertForSequenceClassification/BertModel[bert]/BertEncoder[encoder]/ModuleList[layer]/BertLayer[0]/BertAttention[attention]/BertSelfAttention[self]/softmax_0" type="Softmax"><data metatype="SoftmaxOp" node_id="25" /><input><port id="0"><dim>1</dim><dim>2</dim><dim>128</dim><dim>128</dim></port></input><output><port id="0"><dim>1</dim><dim>2</dim><dim>128</dim><dim>128</dim></port></output></layer><layer id="26" name="BertForSequenceClassification/BertModel[bert]/BertEncoder[encoder]/ModuleList[layer]/BertLayer[0]/BertAttention[attention]/BertSelfAttention[self]/Dropout[dropout]/dropout_0" type="Dropout"><data metatype="DropoutOp" node_id="26" /><input><port id="0"><dim>1</dim><dim>2</dim><dim>128</dim><dim>128</dim></port></input><output><port id="0"><dim>1</dim><dim>2</dim><dim>128</dim><dim>128</dim></port></output></layer><layer id="27" name="BertForSequenceClassification/BertModel[bert]/BertEncoder[encoder]/ModuleList[layer]/BertLayer[0]/BertAttention[attention]/BertSelfAttention[self]/matmul_1" type="Matmul"><data metatype="MatMulOp" node_id="27" /><input><port id="0"><dim>1</dim><dim>2</dim><dim>128</dim><dim>128</dim></port><port id="1"><dim>1</dim><dim>2</dim><dim>128</dim><dim>64</dim></port></input><output><port id="0"><dim>1</dim><dim>2</dim><dim>128</dim><dim>64</dim></port></output></layer><layer id="28" name="BertForSequenceClassification/BertModel[bert]/BertEncoder[encoder]/ModuleList[layer]/BertLayer[0]/BertAttention[attention]/BertSelfAttention[self]/permute_3" type="Permute"><data metatype="TransposeOp" node_id="28" permutation="(0, 2, 1, 3)" /><input><port id="0"><dim>1</dim><dim>2</dim><dim>128</dim><dim>64</dim></port></input><output><port id="0"><dim>1</dim><dim>128</dim><dim>2</dim><dim>64</dim></port></output></layer><layer id="29" name="BertForSequenceClassification/BertModel[bert]/BertEncoder[encoder]/ModuleList[layer]/BertLayer[0]/BertAttention[attention]/BertSelfAttention[self]/contiguous_0" type="Contiguous"><data metatype="noop" node_id="29" /><input><port id="0"><dim>1</dim><dim>128</dim><dim>2</dim><dim>64</dim></port></input><output><port id="0"><dim>1</dim><dim>128</dim><dim>2</dim><dim>64</dim></port></output></layer><layer id="30" name="BertForSequenceClassification/BertModel[bert]/BertEncoder[encoder]/ModuleList[layer]/BertLayer[0]/BertAttention[attention]/BertSelfAttention[self]/view_3" type="View"><data metatype="ReshapeOp" node_id="30" input_shape="(1, 128, 2, 64)" output_shape="(1, 128, 128)" /><input><port id="0"><dim>1</dim><dim>128</dim><dim>2</dim><dim>64</dim></port></input><output><port id="0"><dim>1</dim><dim>128</dim><dim>128</dim></port></output></layer><layer id="31" name="BertForSequenceClassification/BertModel[bert]/BertEncoder[encoder]/ModuleList[layer]/BertLayer[0]/BertAttention[attention]/BertSelfOutput[output]/NNCFLinear[dense]/linear_0" type="Linear"><data metatype="LinearOp" node_id="31" weight_requires_grad="True" dtype="Dtype.FLOAT" in_features="128" out_features="128" bias="True" output_mask="{&#10;    &quot;2&quot;: [&#10;        [&#10;            &quot;S:1__O:0__ID:31&quot;&#10;        ]&#10;    ]&#10;}" /><input><port id="0"><dim>1</dim><dim>128</dim><dim>128</dim></port></input><output><port id="0"><dim>1</dim><dim>128</dim><dim>128</dim></port></output></layer><layer id="32" name="BertForSequenceClassification/BertModel[bert]/BertEncoder[encoder]/ModuleList[layer]/BertLayer[0]/BertAttention[attention]/BertSelfOutput[output]/Dropout[dropout]/dropout_0" type="Dropout"><data metatype="DropoutOp" node_id="32" /><input><port id="0"><dim>1</dim><dim>128</dim><dim>128</dim></port></input><output><port id="0"><dim>1</dim><dim>128</dim><dim>128</dim></port></output></layer><layer id="33" name="BertForSequenceClassification/BertModel[bert]/BertEncoder[encoder]/ModuleList[layer]/BertLayer[0]/BertAttention[attention]/BertSelfOutput[output]/__add___0" type="__Add__"><data metatype="AddOp" node_id="33" /><input><port id="0"><dim>1</dim><dim>128</dim><dim>128</dim></port><port id="1"><dim>1</dim><dim>128</dim><dim>128</dim></port></input><output><port id="0"><dim>1</dim><dim>128</dim><dim>128</dim></port></output></layer><layer id="34" name="BertForSequenceClassification/BertModel[bert]/BertEncoder[encoder]/ModuleList[layer]/BertLayer[0]/BertAttention[attention]/BertSelfOutput[output]/NNCFLayerNorm[LayerNorm]/layer_norm_0" type="Layer_Norm"><data metatype="LayerNormOp" node_id="34" weight_requires_grad="True" dtype="Dtype.FLOAT" weight_shape="torch.Size([128])" filter_dimension_idx="0" /><input><port id="0"><dim>1</dim><dim>128</dim><dim>128</dim></port></input><output><port id="0"><dim>1</dim><dim>128</dim><dim>128</dim></port><port id="0"><dim>1</dim><dim>128</dim><dim>128</dim></port></output></layer><layer id="35" name="BertForSequenceClassification/BertModel[bert]/BertEncoder[encoder]/ModuleList[layer]/BertLayer[0]/BertIntermediate[intermediate]/NNCFLinear[dense]/linear_0" type="Linear"><data metatype="LinearOp" node_id="35" weight_requires_grad="True" dtype="Dtype.FLOAT" in_features="128" out_features="512" bias="True" output_mask="{&#10;    &quot;2&quot;: [&#10;        [&#10;            &quot;S:1__O:0__ID:35&quot;&#10;        ]&#10;    ]&#10;}" /><input><port id="0"><dim>1</dim><dim>128</dim><dim>128</dim></port></input><output><port id="0"><dim>1</dim><dim>128</dim><dim>512</dim></port></output></layer><layer id="36" name="BertForSequenceClassification/BertModel[bert]/BertEncoder[encoder]/ModuleList[layer]/BertLayer[0]/BertIntermediate[intermediate]/GELUActivation[intermediate_act_fn]/gelu_0" type="Gelu"><data metatype="GeluOp" node_id="36" /><input><port id="0"><dim>1</dim><dim>128</dim><dim>512</dim></port></input><output><port id="0"><dim>1</dim><dim>128</dim><dim>512</dim></port></output></layer><layer id="37" name="BertForSequenceClassification/BertModel[bert]/BertEncoder[encoder]/ModuleList[layer]/BertLayer[0]/BertOutput[output]/NNCFLinear[dense]/linear_0" type="Linear"><data metatype="LinearOp" node_id="37" weight_requires_grad="True" dtype="Dtype.FLOAT" in_features="512" out_features="128" bias="True" output_mask="{&#10;    &quot;2&quot;: [&#10;        [&#10;            &quot;S:1__O:0__ID:37&quot;&#10;        ]&#10;    ]&#10;}" /><input><port id="0"><dim>1</dim><dim>128</dim><dim>512</dim></port></input><output><port id="0"><dim>1</dim><dim>128</dim><dim>128</dim></port></output></layer><layer id="38" name="BertForSequenceClassification/BertModel[bert]/BertEncoder[encoder]/ModuleList[layer]/BertLayer[0]/BertOutput[output]/Dropout[dropout]/dropout_0" type="Dropout"><data metatype="DropoutOp" node_id="38" /><input><port id="0"><dim>1</dim><dim>128</dim><dim>128</dim></port></input><output><port id="0"><dim>1</dim><dim>128</dim><dim>128</dim></port></output></layer><layer id="39" name="BertForSequenceClassification/BertModel[bert]/BertEncoder[encoder]/ModuleList[layer]/BertLayer[0]/BertOutput[output]/__add___0" type="__Add__"><data metatype="AddOp" node_id="39" /><input><port id="0"><dim>1</dim><dim>128</dim><dim>128</dim></port><port id="1"><dim>1</dim><dim>128</dim><dim>128</dim></port></input><output><port id="0"><dim>1</dim><dim>128</dim><dim>128</dim></port></output></layer><layer id="40" name="BertForSequenceClassification/BertModel[bert]/BertEncoder[encoder]/ModuleList[layer]/BertLayer[0]/BertOutput[output]/NNCFLayerNorm[LayerNorm]/layer_norm_0" type="Layer_Norm"><data metatype="LayerNormOp" node_id="40" weight_requires_grad="True" dtype="Dtype.FLOAT" weight_shape="torch.Size([128])" filter_dimension_idx="0" /><input><port id="0"><dim>1</dim><dim>128</dim><dim>128</dim></port></input><output><port id="0"><dim>1</dim><dim>128</dim><dim>128</dim></port><port id="0"><dim>1</dim><dim>128</dim><dim>128</dim></port><port id="0"><dim>1</dim><dim>128</dim><dim>128</dim></port><port id="0"><dim>1</dim><dim>128</dim><dim>128</dim></port></output></layer><layer id="41" name="BertForSequenceClassification/BertModel[bert]/BertEncoder[encoder]/ModuleList[layer]/BertLayer[1]/BertAttention[attention]/BertSelfAttention[self]/NNCFLinear[query]/linear_0" type="Linear"><data metatype="LinearOp" node_id="41" weight_requires_grad="True" dtype="Dtype.FLOAT" in_features="128" out_features="128" bias="True" output_mask="{&#10;    &quot;2&quot;: [&#10;        [&#10;            &quot;S:1__O:0__ID:41&quot;&#10;        ]&#10;    ]&#10;}" /><input><port id="0"><dim>1</dim><dim>128</dim><dim>128</dim></port></input><output><port id="0"><dim>1</dim><dim>128</dim><dim>128</dim></port></output></layer><layer id="42" name="BertForSequenceClassification/BertModel[bert]/BertEncoder[encoder]/ModuleList[layer]/BertLayer[1]/BertAttention[attention]/BertSelfAttention[self]/NNCFLinear[key]/linear_0" type="Linear"><data metatype="LinearOp" node_id="42" weight_requires_grad="True" dtype="Dtype.FLOAT" in_features="128" out_features="128" bias="True" output_mask="{&#10;    &quot;2&quot;: [&#10;        [&#10;            &quot;S:1__O:0__ID:42&quot;&#10;        ]&#10;    ]&#10;}" /><input><port id="0"><dim>1</dim><dim>128</dim><dim>128</dim></port></input><output><port id="0"><dim>1</dim><dim>128</dim><dim>128</dim></port></output></layer><layer id="43" name="BertForSequenceClassification/BertModel[bert]/BertEncoder[encoder]/ModuleList[layer]/BertLayer[1]/BertAttention[attention]/BertSelfAttention[self]/view_0" type="View"><data metatype="ReshapeOp" node_id="43" input_shape="(1, 128, 128)" output_shape="(1, 128, 2, 64)" /><input><port id="0"><dim>1</dim><dim>128</dim><dim>128</dim></port></input><output><port id="0"><dim>1</dim><dim>128</dim><dim>2</dim><dim>64</dim></port></output></layer><layer id="44" name="BertForSequenceClassification/BertModel[bert]/BertEncoder[encoder]/ModuleList[layer]/BertLayer[1]/BertAttention[attention]/BertSelfAttention[self]/permute_0" type="Permute"><data metatype="TransposeOp" node_id="44" permutation="(0, 2, 1, 3)" /><input><port id="0"><dim>1</dim><dim>128</dim><dim>2</dim><dim>64</dim></port></input><output><port id="0"><dim>1</dim><dim>2</dim><dim>128</dim><dim>64</dim></port></output></layer><layer id="45" name="BertForSequenceClassification/BertModel[bert]/BertEncoder[encoder]/ModuleList[layer]/BertLayer[1]/BertAttention[attention]/BertSelfAttention[self]/NNCFLinear[value]/linear_0" type="Linear"><data metatype="LinearOp" node_id="45" weight_requires_grad="True" dtype="Dtype.FLOAT" in_features="128" out_features="128" bias="True" output_mask="{&#10;    &quot;2&quot;: [&#10;        [&#10;            &quot;S:1__O:0__ID:45&quot;&#10;        ]&#10;    ]&#10;}" /><input><port id="0"><dim>1</dim><dim>128</dim><dim>128</dim></port></input><output><port id="0"><dim>1</dim><dim>128</dim><dim>128</dim></port></output></layer><layer id="46" name="BertForSequenceClassification/BertModel[bert]/BertEncoder[encoder]/ModuleList[layer]/BertLayer[1]/BertAttention[attention]/BertSelfAttention[self]/view_1" type="View"><data metatype="ReshapeOp" node_id="46" input_shape="(1, 128, 128)" output_shape="(1, 128, 2, 64)" /><input><port id="0"><dim>1</dim><dim>128</dim><dim>128</dim></port></input><output><port id="0"><dim>1</dim><dim>128</dim><dim>2</dim><dim>64</dim></port></output></layer><layer id="47" name="BertForSequenceClassification/BertModel[bert]/BertEncoder[encoder]/ModuleList[layer]/BertLayer[1]/BertAttention[attention]/BertSelfAttention[self]/permute_1" type="Permute"><data metatype="TransposeOp" node_id="47" permutation="(0, 2, 1, 3)" /><input><port id="0"><dim>1</dim><dim>128</dim><dim>2</dim><dim>64</dim></port></input><output><port id="0"><dim>1</dim><dim>2</dim><dim>128</dim><dim>64</dim></port></output></layer><layer id="48" name="BertForSequenceClassification/BertModel[bert]/BertEncoder[encoder]/ModuleList[layer]/BertLayer[1]/BertAttention[attention]/BertSelfAttention[self]/view_2" type="View"><data metatype="ReshapeOp" node_id="48" input_shape="(1, 128, 128)" output_shape="(1, 128, 2, 64)" /><input><port id="0"><dim>1</dim><dim>128</dim><dim>128</dim></port></input><output><port id="0"><dim>1</dim><dim>128</dim><dim>2</dim><dim>64</dim></port></output></layer><layer id="49" name="BertForSequenceClassification/BertModel[bert]/BertEncoder[encoder]/ModuleList[layer]/BertLayer[1]/BertAttention[attention]/BertSelfAttention[self]/permute_2" type="Permute"><data metatype="TransposeOp" node_id="49" permutation="(0, 2, 1, 3)" /><input><port id="0"><dim>1</dim><dim>128</dim><dim>2</dim><dim>64</dim></port></input><output><port id="0"><dim>1</dim><dim>2</dim><dim>128</dim><dim>64</dim></port></output></layer><layer id="50" name="BertForSequenceClassification/BertModel[bert]/BertEncoder[encoder]/ModuleList[layer]/BertLayer[1]/BertAttention[attention]/BertSelfAttention[self]/transpose_0" type="Transpose"><data metatype="TransposeOp" node_id="50" dim0="-1" dim1="-2" /><input><port id="0"><dim>1</dim><dim>2</dim><dim>128</dim><dim>64</dim></port></input><output><port id="0"><dim>1</dim><dim>2</dim><dim>64</dim><dim>128</dim></port></output></layer><layer id="51" name="BertForSequenceClassification/BertModel[bert]/BertEncoder[encoder]/ModuleList[layer]/BertLayer[1]/BertAttention[attention]/BertSelfAttention[self]/matmul_0" type="Matmul"><data metatype="MatMulOp" node_id="51" /><input><port id="0"><dim>1</dim><dim>2</dim><dim>128</dim><dim>64</dim></port><port id="1"><dim>1</dim><dim>2</dim><dim>64</dim><dim>128</dim></port></input><output><port id="0"><dim>1</dim><dim>2</dim><dim>128</dim><dim>128</dim></port></output></layer><layer id="52" name="BertForSequenceClassification/BertModel[bert]/BertEncoder[encoder]/ModuleList[layer]/BertLayer[1]/BertAttention[attention]/BertSelfAttention[self]/__truediv___0" type="__Truediv__"><data metatype="DivOp" node_id="52" /><input><port id="0"><dim>1</dim><dim>2</dim><dim>128</dim><dim>128</dim></port></input><output><port id="0"><dim>1</dim><dim>2</dim><dim>128</dim><dim>128</dim></port></output></layer><layer id="53" name="BertForSequenceClassification/BertModel[bert]/BertEncoder[encoder]/ModuleList[layer]/BertLayer[1]/BertAttention[attention]/BertSelfAttention[self]/__add___0" type="__Add__"><data metatype="AddOp" node_id="53" /><input><port id="0"><dim>1</dim><dim>2</dim><dim>128</dim><dim>128</dim></port></input><output><port id="0"><dim>1</dim><dim>2</dim><dim>128</dim><dim>128</dim></port></output></layer><layer id="54" name="BertForSequenceClassification/BertModel[bert]/BertEncoder[encoder]/ModuleList[layer]/BertLayer[1]/BertAttention[attention]/BertSelfAttention[self]/softmax_0" type="Softmax"><data metatype="SoftmaxOp" node_id="54" /><input><port id="0"><dim>1</dim><dim>2</dim><dim>128</dim><dim>128</dim></port></input><output><port id="0"><dim>1</dim><dim>2</dim><dim>128</dim><dim>128</dim></port></output></layer><layer id="55" name="BertForSequenceClassification/BertModel[bert]/BertEncoder[encoder]/ModuleList[layer]/BertLayer[1]/BertAttention[attention]/BertSelfAttention[self]/Dropout[dropout]/dropout_0" type="Dropout"><data metatype="DropoutOp" node_id="55" /><input><port id="0"><dim>1</dim><dim>2</dim><dim>128</dim><dim>128</dim></port></input><output><port id="0"><dim>1</dim><dim>2</dim><dim>128</dim><dim>128</dim></port></output></layer><layer id="56" name="BertForSequenceClassification/BertModel[bert]/BertEncoder[encoder]/ModuleList[layer]/BertLayer[1]/BertAttention[attention]/BertSelfAttention[self]/matmul_1" type="Matmul"><data metatype="MatMulOp" node_id="56" /><input><port id="0"><dim>1</dim><dim>2</dim><dim>128</dim><dim>128</dim></port><port id="1"><dim>1</dim><dim>2</dim><dim>128</dim><dim>64</dim></port></input><output><port id="0"><dim>1</dim><dim>2</dim><dim>128</dim><dim>64</dim></port></output></layer><layer id="57" name="BertForSequenceClassification/BertModel[bert]/BertEncoder[encoder]/ModuleList[layer]/BertLayer[1]/BertAttention[attention]/BertSelfAttention[self]/permute_3" type="Permute"><data metatype="TransposeOp" node_id="57" permutation="(0, 2, 1, 3)" /><input><port id="0"><dim>1</dim><dim>2</dim><dim>128</dim><dim>64</dim></port></input><output><port id="0"><dim>1</dim><dim>128</dim><dim>2</dim><dim>64</dim></port></output></layer><layer id="58" name="BertForSequenceClassification/BertModel[bert]/BertEncoder[encoder]/ModuleList[layer]/BertLayer[1]/BertAttention[attention]/BertSelfAttention[self]/contiguous_0" type="Contiguous"><data metatype="noop" node_id="58" /><input><port id="0"><dim>1</dim><dim>128</dim><dim>2</dim><dim>64</dim></port></input><output><port id="0"><dim>1</dim><dim>128</dim><dim>2</dim><dim>64</dim></port></output></layer><layer id="59" name="BertForSequenceClassification/BertModel[bert]/BertEncoder[encoder]/ModuleList[layer]/BertLayer[1]/BertAttention[attention]/BertSelfAttention[self]/view_3" type="View"><data metatype="ReshapeOp" node_id="59" input_shape="(1, 128, 2, 64)" output_shape="(1, 128, 128)" /><input><port id="0"><dim>1</dim><dim>128</dim><dim>2</dim><dim>64</dim></port></input><output><port id="0"><dim>1</dim><dim>128</dim><dim>128</dim></port></output></layer><layer id="60" name="BertForSequenceClassification/BertModel[bert]/BertEncoder[encoder]/ModuleList[layer]/BertLayer[1]/BertAttention[attention]/BertSelfOutput[output]/NNCFLinear[dense]/linear_0" type="Linear"><data metatype="LinearOp" node_id="60" weight_requires_grad="True" dtype="Dtype.FLOAT" in_features="128" out_features="128" bias="True" output_mask="{&#10;    &quot;2&quot;: [&#10;        [&#10;            &quot;S:1__O:0__ID:60&quot;&#10;        ]&#10;    ]&#10;}" /><input><port id="0"><dim>1</dim><dim>128</dim><dim>128</dim></port></input><output><port id="0"><dim>1</dim><dim>128</dim><dim>128</dim></port></output></layer><layer id="61" name="BertForSequenceClassification/BertModel[bert]/BertEncoder[encoder]/ModuleList[layer]/BertLayer[1]/BertAttention[attention]/BertSelfOutput[output]/Dropout[dropout]/dropout_0" type="Dropout"><data metatype="DropoutOp" node_id="61" /><input><port id="0"><dim>1</dim><dim>128</dim><dim>128</dim></port></input><output><port id="0"><dim>1</dim><dim>128</dim><dim>128</dim></port></output></layer><layer id="62" name="BertForSequenceClassification/BertModel[bert]/BertEncoder[encoder]/ModuleList[layer]/BertLayer[1]/BertAttention[attention]/BertSelfOutput[output]/__add___0" type="__Add__"><data metatype="AddOp" node_id="62" /><input><port id="0"><dim>1</dim><dim>128</dim><dim>128</dim></port><port id="1"><dim>1</dim><dim>128</dim><dim>128</dim></port></input><output><port id="0"><dim>1</dim><dim>128</dim><dim>128</dim></port></output></layer><layer id="63" name="BertForSequenceClassification/BertModel[bert]/BertEncoder[encoder]/ModuleList[layer]/BertLayer[1]/BertAttention[attention]/BertSelfOutput[output]/NNCFLayerNorm[LayerNorm]/layer_norm_0" type="Layer_Norm"><data metatype="LayerNormOp" node_id="63" weight_requires_grad="True" dtype="Dtype.FLOAT" weight_shape="torch.Size([128])" filter_dimension_idx="0" /><input><port id="0"><dim>1</dim><dim>128</dim><dim>128</dim></port></input><output><port id="0"><dim>1</dim><dim>128</dim><dim>128</dim></port><port id="0"><dim>1</dim><dim>128</dim><dim>128</dim></port></output></layer><layer id="64" name="BertForSequenceClassification/BertModel[bert]/BertEncoder[encoder]/ModuleList[layer]/BertLayer[1]/BertIntermediate[intermediate]/NNCFLinear[dense]/linear_0" type="Linear"><data metatype="LinearOp" node_id="64" weight_requires_grad="True" dtype="Dtype.FLOAT" in_features="128" out_features="512" bias="True" output_mask="{&#10;    &quot;2&quot;: [&#10;        [&#10;            &quot;S:1__O:0__ID:64&quot;&#10;        ]&#10;    ]&#10;}" /><input><port id="0"><dim>1</dim><dim>128</dim><dim>128</dim></port></input><output><port id="0"><dim>1</dim><dim>128</dim><dim>512</dim></port></output></layer><layer id="65" name="BertForSequenceClassification/BertModel[bert]/BertEncoder[encoder]/ModuleList[layer]/BertLayer[1]/BertIntermediate[intermediate]/GELUActivation[intermediate_act_fn]/gelu_0" type="Gelu"><data metatype="GeluOp" node_id="65" /><input><port id="0"><dim>1</dim><dim>128</dim><dim>512</dim></port></input><output><port id="0"><dim>1</dim><dim>128</dim><dim>512</dim></port></output></layer><layer id="66" name="BertForSequenceClassification/BertModel[bert]/BertEncoder[encoder]/ModuleList[layer]/BertLayer[1]/BertOutput[output]/NNCFLinear[dense]/linear_0" type="Linear"><data metatype="LinearOp" node_id="66" weight_requires_grad="True" dtype="Dtype.FLOAT" in_features="512" out_features="128" bias="True" output_mask="{&#10;    &quot;2&quot;: [&#10;        [&#10;            &quot;S:1__O:0__ID:66&quot;&#10;        ]&#10;    ]&#10;}" /><input><port id="0"><dim>1</dim><dim>128</dim><dim>512</dim></port></input><output><port id="0"><dim>1</dim><dim>128</dim><dim>128</dim></port></output></layer><layer id="67" name="BertForSequenceClassification/BertModel[bert]/BertEncoder[encoder]/ModuleList[layer]/BertLayer[1]/BertOutput[output]/Dropout[dropout]/dropout_0" type="Dropout"><data metatype="DropoutOp" node_id="67" /><input><port id="0"><dim>1</dim><dim>128</dim><dim>128</dim></port></input><output><port id="0"><dim>1</dim><dim>128</dim><dim>128</dim></port></output></layer><layer id="68" name="BertForSequenceClassification/BertModel[bert]/BertEncoder[encoder]/ModuleList[layer]/BertLayer[1]/BertOutput[output]/__add___0" type="__Add__"><data metatype="AddOp" node_id="68" /><input><port id="0"><dim>1</dim><dim>128</dim><dim>128</dim></port><port id="1"><dim>1</dim><dim>128</dim><dim>128</dim></port></input><output><port id="0"><dim>1</dim><dim>128</dim><dim>128</dim></port></output></layer><layer id="69" name="BertForSequenceClassification/BertModel[bert]/BertEncoder[encoder]/ModuleList[layer]/BertLayer[1]/BertOutput[output]/NNCFLayerNorm[LayerNorm]/layer_norm_0" type="Layer_Norm"><data metatype="LayerNormOp" node_id="69" weight_requires_grad="True" dtype="Dtype.FLOAT" weight_shape="torch.Size([128])" filter_dimension_idx="0" /><input><port id="0"><dim>1</dim><dim>128</dim><dim>128</dim></port></input><output><port id="0"><dim>1</dim><dim>128</dim><dim>128</dim></port></output></layer><layer id="70" name="BertForSequenceClassification/BertModel[bert]/BertPooler[pooler]/__getitem___0" type="__Getitem__"><data metatype="GatherOp" node_id="70" key="(slice(None, None, None), 0)" /><input><port id="0"><dim>1</dim><dim>128</dim><dim>128</dim></port></input><output><port id="0"><dim>1</dim><dim>128</dim></port></output></layer><layer id="71" name="BertForSequenceClassification/BertModel[bert]/BertPooler[pooler]/NNCFLinear[dense]/linear_0" type="Linear"><data metatype="LinearOp" node_id="71" weight_requires_grad="True" dtype="Dtype.FLOAT" in_features="128" out_features="128" bias="True" output_mask="{&#10;    &quot;1&quot;: [&#10;        [&#10;            &quot;S:1__O:0__ID:71&quot;&#10;        ]&#10;    ]&#10;}" /><input><port id="0"><dim>1</dim><dim>128</dim></port></input><output><port id="0"><dim>1</dim><dim>128</dim></port></output></layer><layer id="72" name="BertForSequenceClassification/BertModel[bert]/BertPooler[pooler]/Tanh[activation]/tanh_0" type="Tanh"><data metatype="TanhOp" node_id="72" /><input><port id="0"><dim>1</dim><dim>128</dim></port></input><output><port id="0"><dim>1</dim><dim>128</dim></port></output></layer><layer id="73" name="BertForSequenceClassification/Dropout[dropout]/dropout_0" type="Dropout"><data metatype="DropoutOp" node_id="73" /><input><port id="0"><dim>1</dim><dim>128</dim></port></input><output><port id="0"><dim>1</dim><dim>128</dim></port></output></layer><layer id="74" name="BertForSequenceClassification/NNCFLinear[classifier]/linear_0" type="Linear"><data metatype="LinearOp" node_id="74" weight_requires_grad="True" dtype="Dtype.FLOAT" in_features="128" out_features="2" bias="True" output_mask="{&#10;    &quot;1&quot;: [&#10;        [&#10;            &quot;S:1__O:0__ID:74&quot;&#10;        ]&#10;    ]&#10;}" /><input><port id="0"><dim>1</dim><dim>128</dim></port></input><output><port id="0"><dim>1</dim><dim>2</dim></port></output></layer><layer id="75" name="/nncf_model_output_0" type="Nncf_Model_Output"><data metatype="output_noop" node_id="75" /><input><port id="0"><dim>1</dim><dim>2</dim></port></input></layer></layers><edges><edge from-layer="1" from-port="0" to-layer="4" to-port="0" /><edge from-layer="0" from-port="0" to-layer="5" to-port="0" /><edge from-layer="2" from-port="0" to-layer="6" to-port="0" /><edge from-layer="5" from-port="0" to-layer="7" to-port="0" /><edge from-layer="6" from-port="0" to-layer="7" to-port="1" /><edge from-layer="3" from-port="0" to-layer="8" to-port="0" /><edge from-layer="7" from-port="0" to-layer="9" to-port="0" /><edge from-layer="8" from-port="0" to-layer="9" to-port="1" /><edge from-layer="9" from-port="0" to-layer="10" to-port="0" /><edge from-layer="10" from-port="0" to-layer="11" to-port="0" /><edge from-layer="11" from-port="0" to-layer="12" to-port="0" /><edge from-layer="11" from-port="0" to-layer="13" to-port="0" /><edge from-layer="13" from-port="0" to-layer="14" to-port="0" /><edge from-layer="14" from-port="0" to-layer="15" to-port="0" /><edge from-layer="11" from-port="0" to-layer="16" to-port="0" /><edge from-layer="16" from-port="0" to-layer="17" to-port="0" /><edge from-layer="17" from-port="0" to-layer="18" to-port="0" /><edge from-layer="12" from-port="0" to-layer="19" to-port="0" /><edge from-layer="19" from-port="0" to-layer="20" to-port="0" /><edge from-layer="15" from-port="0" to-layer="21" to-port="0" /><edge from-layer="20" from-port="0" to-layer="22" to-port="0" /><edge from-layer="21" from-port="0" to-layer="22" to-port="1" /><edge from-layer="22" from-port="0" to-layer="23" to-port="0" /><edge from-layer="23" from-port="0" to-layer="24" to-port="0" /><edge from-layer="24" from-port="0" to-layer="25" to-port="0" /><edge from-layer="25" from-port="0" to-layer="26" to-port="0" /><edge from-layer="26" from-port="0" to-layer="27" to-port="0" /><edge from-layer="18" from-port="0" to-layer="27" to-port="1" /><edge from-layer="27" from-port="0" to-layer="28" to-port="0" /><edge from-layer="28" from-port="0" to-layer="29" to-port="0" /><edge from-layer="29" from-port="0" to-layer="30" to-port="0" /><edge from-layer="30" from-port="0" to-layer="31" to-port="0" /><edge from-layer="31" from-port="0" to-layer="32" to-port="0" /><edge from-layer="32" from-port="0" to-layer="33" to-port="0" /><edge from-layer="11" from-port="0" to-layer="33" to-port="1" /><edge from-layer="33" from-port="0" to-layer="34" to-port="0" /><edge from-layer="34" from-port="0" to-layer="35" to-port="0" /><edge from-layer="35" from-port="0" to-layer="36" to-port="0" /><edge from-layer="36" from-port="0" to-layer="37" to-port="0" /><edge from-layer="37" from-port="0" to-layer="38" to-port="0" /><edge from-layer="38" from-port="0" to-layer="39" to-port="0" /><edge from-layer="34" from-port="0" to-layer="39" to-port="1" /><edge from-layer="39" from-port="0" to-layer="40" to-port="0" /><edge from-layer="40" from-port="0" to-layer="41" to-port="0" /><edge from-layer="40" from-port="0" to-layer="42" to-port="0" /><edge from-layer="42" from-port="0" to-layer="43" to-port="0" /><edge from-layer="43" from-port="0" to-layer="44" to-port="0" /><edge from-layer="40" from-port="0" to-layer="45" to-port="0" /><edge from-layer="45" from-port="0" to-layer="46" to-port="0" /><edge from-layer="46" from-port="0" to-layer="47" to-port="0" /><edge from-layer="41" from-port="0" to-layer="48" to-port="0" /><edge from-layer="48" from-port="0" to-layer="49" to-port="0" /><edge from-layer="44" from-port="0" to-layer="50" to-port="0" /><edge from-layer="49" from-port="0" to-layer="51" to-port="0" /><edge from-layer="50" from-port="0" to-layer="51" to-port="1" /><edge from-layer="51" from-port="0" to-layer="52" to-port="0" /><edge from-layer="52" from-port="0" to-layer="53" to-port="0" /><edge from-layer="53" from-port="0" to-layer="54" to-port="0" /><edge from-layer="54" from-port="0" to-layer="55" to-port="0" /><edge from-layer="55" from-port="0" to-layer="56" to-port="0" /><edge from-layer="47" from-port="0" to-layer="56" to-port="1" /><edge from-layer="56" from-port="0" to-layer="57" to-port="0" /><edge from-layer="57" from-port="0" to-layer="58" to-port="0" /><edge from-layer="58" from-port="0" to-layer="59" to-port="0" /><edge from-layer="59" from-port="0" to-layer="60" to-port="0" /><edge from-layer="60" from-port="0" to-layer="61" to-port="0" /><edge from-layer="61" from-port="0" to-layer="62" to-port="0" /><edge from-layer="40" from-port="0" to-layer="62" to-port="1" /><edge from-layer="62" from-port="0" to-layer="63" to-port="0" /><edge from-layer="63" from-port="0" to-layer="64" to-port="0" /><edge from-layer="64" from-port="0" to-layer="65" to-port="0" /><edge from-layer="65" from-port="0" to-layer="66" to-port="0" /><edge from-layer="66" from-port="0" to-layer="67" to-port="0" /><edge from-layer="67" from-port="0" to-layer="68" to-port="0" /><edge from-layer="63" from-port="0" to-layer="68" to-port="1" /><edge from-layer="68" from-port="0" to-layer="69" to-port="0" /><edge from-layer="69" from-port="0" to-layer="70" to-port="0" /><edge from-layer="70" from-port="0" to-layer="71" to-port="0" /><edge from-layer="71" from-port="0" to-layer="72" to-port="0" /><edge from-layer="72" from-port="0" to-layer="73" to-port="0" /><edge from-layer="73" from-port="0" to-layer="74" to-port="0" /><edge from-layer="74" from-port="0" to-layer="75" to-port="0" /></edges></net>